…
└─────────────────────────────────────────────────────────────────────────────┘


[1m[96m======================================================================[0m
[1m[96m  Phase 1: DualVideo2Classification (Classifying 阶段)[0m
[1m[96m======================================================================[0m
      [93m→ hidden_dim = 768  (来自 gpt_type='gpt2' → feature_size['gpt2'])[0m
      [93m→ video_input_dim = 8576[0m
      [93m→ audio_input_dim = 512[0m
      [93m→ video_tokens = 8, audio_tokens = 8[0m

[1m[94m  ── 模型结构打印 (DualVideo2Classification)[0m
DualVideo2Classification(
  (encoder): DualStreamEncoder(
    (video_pre_proj): Linear(in_features=8576, out_features=768, bias=True)
    (video_qformer): QFormerVideoPooling(
      (tranformer_decoder): TransformerDecoder(
        (layers): ModuleList(
          (0-3): 4 x TransformerDecoderLayer(
            (self_attn): MultiheadAttention(
              (out_proj): NonDynamicallyQuantizableLinear(in_features=768, out_features=768, bias=True)
            )
            (multihead_attn): MultiheadAttention(
              (out_proj): NonDynamicallyQuantizableLinear(in_features=768, out_features=768, bias=True)
            )
            (linear1): Linear(in_features=768, out_features=2048, bias=True)
            (dropout): Dropout(p=0.1, inplace=False)
            (linear2): Linear(in_features=2048, out_features=768, bias=True)
            (norm1): LayerNorm((768,), eps=1e-05, elementwise_affine=True)
            (norm2): LayerNorm((768,), eps=1e-05, elementwise_affine=True)
            (norm3): LayerNorm((768,), eps=1e-05, elementwise_affine=True)
            (dropout1): Dropout(p=0.1, inplace=False)
            (dropout2): Dropout(p=0.1, inplace=False)
            (dropout3): Dropout(p=0.1, inplace=False)
          )
        )
      )
      (pos_encoder): PositionalEncoding()
    )
    (audio_pre_proj): Linear(in_features=512, out_features=768, bias=True)
    (audio_qformer): QFormerVideoPooling(
      (tranformer_decoder): TransformerDecoder(
        (layers): ModuleList(
          (0-3): 4 x TransformerDecoderLayer(
            (self_attn): MultiheadAttention(
              (out_proj): NonDynamicallyQuantizableLinear(in_features=768, out_features=768, bias=True)
            )
            (multihead_attn): MultiheadAttention(
              (out_proj): NonDynamicallyQuantizableLinear(in_features=768, out_features=768, bias=True)
            )
            (linear1): Linear(in_features=768, out_features=2048, bias=True)
            (dropout): Dropout(p=0.1, inplace=False)
            (linear2): Linear(in_features=2048, out_features=768, bias=True)
            (norm1): LayerNorm((768,), eps=1e-05, elementwise_affine=True)
            (norm2): LayerNorm((768,), eps=1e-05, elementwise_affine=True)
            (norm3): LayerNorm((768,), eps=1e-05, elementwise_affine=True)
            (dropout1): Dropout(p=0.1, inplace=False)
            (dropout2): Dropout(p=0.1, inplace=False)
            (dropout3): Dropout(p=0.1, inplace=False)
          )
        )
      )
      (pos_encoder): PositionalEncoding()
    )
    (fusion_norm): LayerNorm((768,), eps=1e-05, elementwise_affine=True)
  )
  (fc): Linear(in_features=768, out_features=17, bias=True)
)

[1m[94m  ── 参数统计: DualVideo2Classification[0m
    参数名                                                     Shape                             数量  可训练
    ─────────────────────────────────────────────────────── ───────────────────────── ──────────  ────
    encoder.video_pre_proj.weight                           (768, 8576)                6,586,368  [92m✓[0m
…
      [93m→ hidden_dim = 3584  ← 自动从 Qwen2.5-7B.config.hidden_size 读取[0m
      [93m→   (代码: actual_hidden = self.llm.config.hidden_size)[0m
      [93m→ video_input_dim = 8576[0m
      [93m→ audio_input_dim = 512[0m
      [93m→ video_tokens = 8, audio_tokens = 8[0m

[1m[94m  ── 尝试加载 DualVideo2CaptionLLM (需要 Qwen 模型文件)[0m
trainable params: 20,185,088 || all params: 7,635,801,600 || trainable%: 0.2643

[1m[94m  ── 模型结构打印 (DualVideo2CaptionLLM)[0m
DualVideo2CaptionLLM(
  (llm): PeftModelForCausalLM(
    (base_model): LoraModel(
      (model): Qwen2ForCausalLM(
        (model): Qwen2Model(
          (embed_tokens): Embedding(152064, 3584)
          (layers): ModuleList(
            (0-27): 28 x Qwen2DecoderLayer(
              (self_attn): Qwen2Attention(
                (q_proj): lora.Linear(
                  (base_layer): Linear(in_features=3584, out_features=3584, bias=True)
                  (lora_dropout): ModuleDict(
                    (default): Dropout(p=0.05, inplace=False)
                  )
                  (lora_A): ModuleDict(
                    (default): Linear(in_features=3584, out_features=8, bias=False)
                  )
                  (lora_B): ModuleDict(
                    (default): Linear(in_features=8, out_features=3584, bias=False)
                  )
                  (lora_embedding_A): ParameterDict()
                  (lora_embedding_B): ParameterDict()
                  (lora_magnitude_vector): ModuleDict()
                )
                (k_proj): lora.Linear(
                  (base_layer): Linear(in_features=3584, out_features=512, bias=True)
                  (lora_dropout): ModuleDict(
                    (default): Dropout(p=0.05, inplace=False)
                  )
                  (lora_A): ModuleDict(
                    (default): Linear(in_features=3584, out_features=8, bias=False)
                  )
                  (lora_B): ModuleDict(
                    (default): Linear(in_features=8, out_features=512, bias=False)
                  )
                  (lora_embedding_A): ParameterDict()
                  (lora_embedding_B): ParameterDict()
                  (lora_magnitude_vector): ModuleDict()
                )
                (v_proj): lora.Linear(
                  (base_layer): Linear(in_features=3584, out_features=512, bias=True)
                  (lora_dropout): ModuleDict(
                    (default): Dropout(p=0.05, inplace=False)
                  )
                  (lora_A): ModuleDict(
                    (default): Linear(in_features=3584, out_features=8, bias=False)
                  )
                  (lora_B): ModuleDict(
                    (default): Linear(in_features=8, out_features=512, bias=False)
                  )
                  (lora_embedding_A): ParameterDict()
                  (lora_embedding_B): ParameterDict()
                  (lora_magnitude_vector): ModuleDict()
                )
                (o_proj): lora.Linear(
                  (base_layer): Linear(in_features=3584, out_features=3584, bias=False)
                  (lora_dropout): ModuleDict(
                    (default): Dropout(p=0.05, inplace=False)
                  )
                  (lora_A): ModuleDict(
                    (default): Linear(in_features=3584, out_features=8, bias=False)
                  )
                  (lora_B): ModuleDict(
                    (default): Linear(in_features=8, out_features=3584, bias=False)
                  )
                  (lora_embedding_A): ParameterDict()
                  (lora_embedding_B): ParameterDict()
                  (lora_magnitude_vector): ModuleDict()
                )
              )
              (mlp): Qwen2MLP(
                (gate_proj): lora.Linear(
                  (base_layer): Linear(in_features=3584, out_features=18944, bias=False)
                  (lora_dropout): ModuleDict(
                    (default): Dropout(p=0.05, inplace=False)
                  )
                  (lora_A): ModuleDict(
                    (default): Linear(in_features=3584, out_features=8, bias=False)
                  )
                  (lora_B): ModuleDict(
                    (default): Linear(in_features=8, out_features=18944, bias=False)
                  )
                  (lora_embedding_A): ParameterDict()
                  (lora_embedding_B): ParameterDict()
                  (lora_magnitude_vector): ModuleDict()
                )
                (up_proj): lora.Linear(
                  (base_layer): Linear(in_features=3584, out_features=18944, bias=False)
                  (lora_dropout): ModuleDict(
                    (default): Dropout(p=0.05, inplace=False)
                  )
                  (lora_A): ModuleDict(
                    (default): Linear(in_features=3584, out_features=8, bias=False)
                  )
                  (lora_B): ModuleDict(
                    (default): Linear(in_features=8, out_features=18944, bias=False)
                  )
                  (lora_embedding_A): ParameterDict()
                  (lora_embedding_B): ParameterDict()
                  (lora_magnitude_vector): ModuleDict()
                )
                (down_proj): lora.Linear(
                  (base_layer): Linear(in_features=18944, out_features=3584, bias=False)
                  (lora_dropout): ModuleDict(
                    (default): Dropout(p=0.05, inplace=False)
                  )
                  (lora_A): ModuleDict(
                    (default): Linear(in_features=18944, out_features=8, bias=False)
                  )
                  (lora_B): ModuleDict(
                    (default): Linear(in_features=8, out_features=3584, bias=False)
                  )
                  (lora_embedding_A): ParameterDict()
                  (lora_embedding_B): ParameterDict()
                  (lora_magnitude_vector): ModuleDict()
                )
                (act_fn): SiLUActivation()
              )
              (input_layernorm): Qwen2RMSNorm((3584,), eps=1e-06)
              (post_attention_layernorm): Qwen2RMSNorm((3584,), eps=1e-06)
            )
          )
          (norm): Qwen2RMSNorm((3584,), eps=1e-06)
          (rotary_emb): Qwen2RotaryEmbedding()
        )
        (lm_head): Linear(in_features=3584, out_features=152064, bias=False)
      )
    )
  )
  (encoder): DualStreamEncoder(
    (video_pre_proj): Linear(in_features=8576, out_features=3584, bias=True)
    (video_qformer): QFormerVideoPooling(
      (tranformer_decoder): TransformerDecoder(
        (layers): ModuleList(
          (0-3): 4 x TransformerDecoderLayer(
            (self_attn): MultiheadAttention(
              (out_proj): NonDynamicallyQuantizableLinear(in_features=3584, out_features=3584, bias=True)
            )
            (multihead_attn): MultiheadAttention(
              (out_proj): NonDynamicallyQuantizableLinear(in_features=3584, out_features=3584, bias=True)
            )
            (linear1): Linear(in_features=3584, out_features=2048, bias=True)
            (dropout): Dropout(p=0.1, inplace=False)
            (linear2): Linear(in_features=2048, out_features=3584, bias=True)
            (norm1): LayerNorm((3584,), eps=1e-05, elementwise_affine=True)
            (norm2): LayerNorm((3584,), eps=1e-05, elementwise_affine=True)
            (norm3): LayerNorm((3584,), eps=1e-05, elementwise_affine=True)
            (dropout1): Dropout(p=0.1, inplace=False)
            (dropout2): Dropout(p=0.1, inplace=False)
            (dropout3): Dropout(p=0.1, inplace=False)
          )
        )
      )
      (pos_encoder): PositionalEncoding()
    )
    (audio_pre_proj): Linear(in_features=512, out_features=3584, bias=True)
    (audio_qformer): QFormerVideoPooling(
      (tranformer_decoder): TransformerDecoder(
        (layers): ModuleList(
          (0-3): 4 x TransformerDecoderLayer(
            (self_attn): MultiheadAttention(
              (out_proj): NonDynamicallyQuantizableLinear(in_features=3584, out_features=3584, bias=True)
            )
            (multihead_attn): MultiheadAttention(
              (out_proj): NonDynamicallyQuantizableLinear(in_features=3584, out_features=3584, bias=True)
            )
            (linear1): Linear(in_features=3584, out_features=2048, bias=True)
            (dropout): Dropout(p=0.1, inplace=False)
            (linear2): Linear(in_features=2048, out_features=3584, bias=True)
            (norm1): LayerNorm((3584,), eps=1e-05, elementwise_affine=True)
            (norm2): LayerNorm((3584,), eps=1e-05, elementwise_affine=True)
            (norm3): LayerNorm((3584,), eps=1e-05, elementwise_affine=True)
            (dropout1): Dropout(p=0.1, inplace=False)
            (dropout2): Dropout(p=0.1, inplace=False)
            (dropout3): Dropout(p=0.1, inplace=False)
          )
        )
      )
      (pos_encoder): PositionalEncoding()
    )
    (fusion_norm): LayerNorm((3584,), eps=1e-05, elementwise_affine=True)
  )
  (proj): Sequential(
    (0): Linear(in_features=3584, out_features=14336, bias=True)
    (1): GELU(approximate='none')
    (2): Linear(in_features=14336, out_features=3584, bias=True)
  )
)

[1m[94m  ── 参数统计: DualVideo2CaptionLLM[0m
    参数名                                                     Shape                             数量  可训练
    ─────────────────────────────────────────────────────── ───────────────────────── ──────────  ────
    llm.base_model.model.model.embed_tokens.weight          (152064, 3584)            544,997,376  [91m✗[0m
…
